models/self_play_model.pth (torch, 5656 bytes, 5 tensors)

fc1.weight f4 [32, 5]
000000 a6 8b cd 3d 6e 28 dc 3d 74 a8 a8 3e 96 62 83 3d
       0.100364015 0.10749899 0.3294102 0.06415288
000010 5a 02 e0 3d c7 50 90 be b1 52 dc 3e 08 26 aa 3e
       0.109379485 -0.28186628 0.4303184 0.3323214
000020 d4 42 82 bf c8 07 fd 3e cc 33 3b bc ab e6 0f bd
       -1.0176644 0.4942 -0.011425924 -0.03513209
000030 a2 50 aa be 86 43 5e be 5d 1f 8a be fd 41 9e be
       -0.33264643 -0.21705446 -0.26977053 -0.3090972
000040 c7 02 b3 be 3c 11 14 3f b8 57 c4 3e 2e 2a 46 be
       -0.34963056 0.578388 0.38348174 -0.19352028
000050 ca a3 a7 3b 10 85 2e 3d 72 68 5a bf b5 50 98 3d
       0.0051159607 0.042607367 -0.8531562 0.07437269
000060 18 17 11 bf a6 0e 19 be 89 23 b7 3e d4 13 40 3f
       -0.56675863 -0.14946994 0.357693 0.75030255
000070 db bc 3a 3f 20 24 b9 be 71 0e 0d be 6c f5 d3 be
       0.7294442 -0.36160374 -0.1377504 -0.4139818
000080 25 ff d4 3d 80 c4 40 3f 15 64 42 bf 19 cc 94 3d
       0.104002275 0.75299835 -0.75933963 0.07265491
000090 75 40 cd 3d 55 0a fc bd 20 b8 0a bf c9 8a 9c 3e
       0.1002206 -0.12306658 -0.541872 0.30574635
0000a0 f3 28 1a be 1b 5c 2b 3e ce 27 27 bf f1 7c 3d bf
       -0.15054683 0.16734354 -0.6529511 -0.7401877
0000b0 22 ab ef 3d e4 d2 a5 be 36 6f b3 be 0d 9b ad be
       0.11702563 -0.3238746 -0.35045785 -0.33907357
0000c0 b5 88 e2 be ef af af be bc dd b4 be 14 e0 f0 3d
       -0.44244924 -0.34313914 -0.3532542 0.117614895
0000d0 89 33 75 3f 77 f9 22 bf 7a dc 14 3f 17 13 49 bd
       0.9578176 -0.63661903 0.5814892 -0.04909047
0000e0 60 22 83 3e 31 35 c0 3e 19 80 09 3f 64 67 8f be
       0.25612164 0.37540582 0.53711087 -0.28008568
0000f0 55 76 83 bd bc 32 6c be 15 5d 1b 3e 6e 97 80 be
       -0.064190544 -0.23066229 0.15172227 -0.25115532
000100 49 c8 47 3f 02 11 a8 be 84 7a c4 be 23 aa 1a 3f
       0.78039986 -0.32825476 -0.38374722 0.6041586
000110 46 45 11 bf 7f d0 41 3f ed 11 ad bd 5a 9e 62 be
       -0.5674633 0.75708765 -0.08450685 -0.22130719
000120 4b 24 51 3f aa 0b 50 3d ec a4 f6 be 9f 07 df bd
       0.81696004 0.050792374 -0.481727 -0.108901255
000130 03 dd a6 be 69 19 f6 be 7f bf 2a be 8b 4e 8d be
       -0.32590494 -0.4806626 -0.16674612 -0.27598986
000140 ea 4f 08 3e 1c a3 8d 3e 88 ac 09 3f 86 cd d8 be
       0.13311735 0.27663505 0.53778887 -0.42344302
000150 c6 ca 42 3f cf 14 ce be a1 5f b7 3d d0 43 8f 3c
       0.7609066 -0.4025025 0.08953787 0.01748839
000160 d6 b1 33 3e 89 48 9c 3e 4b 23 49 be 05 82 ad 3e
       0.17548308 0.3052409 -0.1964237 0.3388826
000170 87 73 62 be 9b 7f 5b 3f 09 3c 0b 3e 7a a9 6d 3d
       -0.22114383 0.85741585 0.1359712 0.058022954
000180 e6 d1 78 be 6d ce 3d bb 78 79 9c bc 1c 56 40 3e
       -0.2429882 -0.002896215 -0.01910089 0.18782848
000190 57 cc 9d bd ae c9 24 be 0d 56 46 bf 56 a3 64 3f
       -0.0770499 -0.1609256 -0.77475053 0.8931173
0001a0 3a e8 f5 3e e5 3e 6d bd 6e 9f 54 3d 02 57 d6 be
       0.48028737 -0.05792131 0.051909856 -0.41863257
0001b0 64 a7 c7 3e 5f 1a c8 3e 64 9c 9b be 43 54 c6 be
       0.38994896 0.3908262 -0.30392754 -0.38736162
0001c0 2b ea 10 3e f8 62 07 bf 07 1f f2 be f7 31 c1 be
       0.14151828 -0.5288539 -0.47289297 -0.37733433
0001d0 fd f5 ae bd d4 e7 48 3d 3b 86 9d 3c 87 7b 8c 3e
       -0.08543012 0.049049214 0.019229045 0.27437994
0001e0 89 5c 9b be 39 ca 3e 3e d5 e0 db be 81 ca 35 3f
       -0.30344036 0.1863183 -0.4294497 0.7101212
0001f0 0c 83 5f bf 64 03 e9 bd 90 17 0a 3e ab 1b 4f 3f
       -0.87309337 -0.113776 0.13485551 0.8090159
000200 03 e9 d8 3e 3c 10 cb 3d 78 36 c5 3d 94 14 b3 3e
       0.42365274 0.09915206 0.0962953 0.34976637
000210 7b e6 f3 be 00 1b 74 bf 5b e2 0a 3f d8 84 0a bd
       -0.4763678 -0.953537 0.5425164 -0.033818096
000220 aa a5 d1 bd b7 0a 2c bf 36 1d aa be ae 46 2d 3f
       -0.10236676 -0.6720385 -0.3322541 0.67685974
000230 c4 65 87 bd 22 d5 8d 3e fa 52 31 3f 54 3b 26 3f
       -0.06611207 0.2770167 0.6926724 0.6493428
000240 8a eb 7c bf be 00 b4 be e6 a8 66 3e d1 65 a6 3d
       -0.98796904 -0.35156816 0.22525367 0.08124889
000250 81 c4 53 be f0 b3 15 bf 90 66 b6 be 4b b1 e6 be
       -0.20680429 -0.5847769 -0.35625124 -0.4505714
000260 b7 2b 41 3e 5a ab 52 bf fa 28 e6 bd c5 85 00 be
       0.18864332 -0.8229271 -0.112382844 -0.12551029
000270 27 65 c3 3e c2 79 03 bf d5 71 35 3e a4 95 71 bf
       0.3816311 -0.5135766 0.17719205 -0.9436896

fc1.bias f4 [32]
000000 22 55 9e 3f d1 88 2a 3f 31 f5 8a 3f 38 71 9f 3f
       1.236973 0.66615015 1.0856076 1.2456427
000010 e7 83 0a 3f 6d c8 01 3f a8 f1 30 3f 3f 18 9e 3f
       0.54107517 0.5069645 0.6911874 1.2351149
000020 9f 33 54 3f db fc f6 3e 62 5d 71 3f d9 47 9e 3f
       0.8289127 0.48239788 0.94283116 1.2365676
000030 7c e7 a3 3f 9d f5 80 3f 51 22 28 3f 93 4b 23 3f
       1.2805018 1.0074955 0.6567736 0.6378719
000040 5e 6b b0 3e 4a e1 37 3f b0 36 01 3f c0 70 8a 3f
       0.34456915 0.7182814 0.5047407 1.0815659
000050 a1 0e 51 3f 7d 69 58 3f a2 34 3e 3f 06 b8 98 3f
       0.81662947 0.8453596 0.7429906 1.193116
000060 8b bc 9f 3f c2 1d 1b 3f 7b bc 33 3f a1 a0 7d 3f
       1.2479414 0.6059228 0.70209473 0.99073225
000070 ed d4 56 3f 14 e5 96 3f 5e 77 d4 3e 08 4d 4c 3f
       0.8391865 1.1788659 0.4149732 0.7980504

fc2.weight f4 [16, 32]
000000 80 2a cb 3e 36 c1 c9 3e 67 f3 fe 3e f6 b4 18 3f
       0.39680862 0.3940522 0.49795076 0.59651124
000010 77 20 9c 3e be 46 71 3e 5c ce 9d 3e c3 11 35 3f
       0.3049352 0.23562142 0.30821502 0.7073023
000020 02 73 06 3f 21 c2 b3 3e fb 90 34 3f 32 69 ff 3e
       0.5251924 0.35109046 0.7053372 0.49884945
000030 98 9a 0c 3f b8 58 15 3f b8 34 ec 3e 9b 6a ae 3e
       0.5492339 0.583385 0.4613397 0.3406571
000040 ae 13 88 3d fc 91 06 3f 4b 4d d0 3e 69 0e bf 3e
       0.066443786 0.52566504 0.4068397 0.37315682
000050 34 dc 2d 3f c2 26 b0 3e b9 06 4f 3e 2f ca 13 3f
       0.6791413 0.3440457 0.20217408 0.5773038
000060 f9 0b 2c 3f dd 5b 99 3e 71 91 aa 3e 61 57 2a 3f
       0.6720577 0.299529 0.33314088 0.6653958
000070 4e 11 07 3f 13 f0 23 3f b9 b4 1c 3d 54 5d 22 3f
       0.5276078 0.640382 0.038258288 0.6342366
000080 57 83 03 3f 6e 49 87 3e 44 92 0a 3f e1 29 c0 3e
       0.51372284 0.2642321 0.54129434 0.3753195
000090 0c 96 c0 3e e4 d0 a0 3e 11 fe f7 3e 5c 82 3d 3f
       0.37614477 0.3140937 0.48436025 0.7402704
0000a0 92 76 2e 3f c9 20 d1 3e f2 3d 2d 3f 12 2d 20 3f
       0.68149674 0.40845326 0.67672646 0.6256877
0000b0 ae 1c 01 3f e2 7c c9 3e 6d 67 a7 3e f0 e0 d8 3e
       0.50434387 0.3935309 0.32696095 0.42359114
0000c0 0a d9 4b bc 90 2a 0d 3f f0 3e 8f 3e 2d e3 11 3f
       -0.012441883 0.5514307 0.27977705 0.5698727
0000d0 4d 2f 4b 3f a1 93 fc 3e a6 1d af 3e f2 99 30 3f
       0.7936905 0.49331382 0.34202307 0.689849
0000e0 6e 74 41 3f e4 17 1f 3f 39 88 d9 3e af 1d 3e 3f
       0.7556828 0.6214583 0.42486742 0.74264044
0000f0 c0 c8 37 3f 56 b2 36 3f 08 c3 57 3e 06 c5 36 3f
       0.71790695 0.7136587 0.21070492 0.71394384
000100 44 ce 1d 3e d3 97 11 be e1 48 d8 3d a0 23 76 3b
       0.15410715 -0.14218073 0.105607755 0.0037557855
000110 2b b2 6d be 18 28 ba bd 77 93 00 3e 61 43 88 3d
       -0.23212497 -0.090896785 0.12556253 0.066534765
000120 4f ea 9a bc 85 7d 2a bd 3c cc 7a bd 88 eb 69 3d
       -0.018910555 -0.04162361 -0.06122993 0.057109386
000130 29 0d d8 3d 91 4c 22 3c e5 62 52 be 80 13 16 be
       0.10549385 0.00990595 -0.20545538 -0.14655876
000140 91 24 a9 3c 79 cd 0c 3d fe a2 71 bd 46 85 ba bd
       0.020647319 0.03437564 -0.058993332 -0.09107451
000150 09 af 62 be b1 ff 30 bc 26 ad e5 b9 b3 87 0d bd
       -0.22137083 -0.010803149 -0.0004380729 -0.03455324
000160 47 d8 ff 3c b4 6f 9f bd 9d d0 90 3d 19 ab 3a be
       0.031231059 -0.077849776 0.0707104 -0.18229331
000170 20 82 59 be ef 9c ca bd 39 81 2e be 71 69 d9 3c
       -0.21241045 -0.09893214 -0.17041482 0.026539536
000180 e3 3e 01 be 06 28 5f bd 0d a2 77 bc 75 34 f1 3d
       -0.12621646 -0.05448153 -0.0151143195 0.117775835
000190 4a cf 86 3d 05 f2 1c 3d 24 59 59 bd 4d 44 dd bc
       0.06582506 0.038316745 -0.053063527 -0.027010107
0001a0 c4 40 d5 3d be 19 b4 3d 18 12 00 3e 75 05 ff bd
       0.10412744 0.087939724 0.12506902 -0.12452213
0001b0 57 0d e5 bd ec 1d 31 3c a8 fb 02 bd 65 44 f5 bc
       -0.11184185 0.010810357 -0.03197828 -0.02993984
0001c0 24 58 e0 bd fe 9a eb 3c 91 66 1d be fd d6 c1 bd
       -0.109543115 0.02876043 -0.15371157 -0.09464834
0001d0 51 2c 86 ba fc 66 8c bd 06 c1 ab bc 6c 62 c2 bd
       -0.0010236596 -0.0685558 -0.020966064 -0.09491429
0001e0 cb 69 a7 bd da 1a a3 bc 85 ea 27 3d 62 9f 2a be
       -0.08174475 -0.019910265 0.04099514 -0.16662362
0001f0 95 08 14 bd 2c dd 91 bd eb b9 d0 bd 9f 1d da 3d
       -0.036140997 -0.07122263 -0.10191711 0.10650181
000200 ca 72 12 3f 55 ef ab 3e 84 14 b4 3e 56 92 d1 3e
       0.57206404 0.33581033 0.35171902 0.40931958
000210 2f c2 a1 3e 6f d3 39 3e ce 11 ab 3e 9d 7a da 3e
       0.31593463 0.18147062 0.3341202 0.42671672
000220 d5 1f 35 3f 2f 74 0c 3e 9e 3d 00 3f e8 c6 10 3f
       0.70751697 0.13716196 0.5009402 0.56553507
000230 90 37 fc 3e 45 33 0d 3f b5 70 b0 3e d6 f1 80 3e
       0.4926114 0.55156356 0.3446099 0.25184506
000240 09 ae 33 3e 9d 3d f8 3e bf b0 e3 3e 58 43 04 3f
       0.17546858 0.48484507 0.44470784 0.5166526
000250 7b 16 0e 3f 19 08 03 3f 4d 71 b1 3e 41 73 0f 3f
       0.5550305 0.5118423 0.34656754 0.5603524
000260 d4 e0 29 3f 06 89 f1 3e 30 11 c3 3e 51 6d 3b 3f
       0.66358685 0.47174853 0.3809905 0.7321368
000270 17 94 b7 3e 0c 8b 36 3f 1b 5d 9a 3e 15 8b dd 3e
       0.3585517 0.7130592 0.3014916 0.43270174
000280 31 4f fe 3e 10 c4 bc 3e 29 6f ae 3e ba ef c6 3e
       0.49669793 0.36868334 0.34069183 0.38854772
000290 98 53 23 3f 9f a7 03 3e fc 26 d2 3e ac 32 13 3f
       0.6379943 0.12856911 0.41045368 0.57499194
0002a0 52 4f 1e 3f e7 61 8a 3e 65 6e e4 3e 24 f6 11 3f
       0.61839783 0.2702782 0.44615474 0.57016206
0002b0 f4 39 24 3f 70 90 04 3f 60 94 c2 3e 95 28 e4 3e
       0.6415093 0.51782894 0.38003826 0.44562212
0002c0 7e 04 ec 3d 71 da a1 3e c4 e9 db 3e 72 d2 8d 3e
       0.11524294 0.3161197 0.42951787 0.2769962
0002d0 23 02 03 3f 87 ab a2 3e 7e 45 d4 3e 9c 4b 12 3f
       0.51175135 0.3177149 0.41459268 0.5714662
0002e0 e9 89 04 3f 12 d1 ff 3e 29 6c 66 3e a1 89 19 3f
       0.51772934 0.49964195 0.22502197 0.5997563
0002f0 93 08 2c 3f ce 21 f7 3e bb 73 01 3d 8b b9 1e 3f
       0.67200583 0.48267978 0.03160451 0.62001866
000300 08 c2 0b be 67 cd 47 bd 12 6e 1b 3e 53 02 fb 3c
       -0.13648236 -0.04877987 0.15178707 0.030640757
000310 c7 eb 7b bb 70 a1 29 bd 08 43 cd 3d 13 eb e1 bd
       -0.0038440095 -0.041413724 0.10022551 -0.11031165
000320 2d 4b 51 bd 38 8f 59 bd a5 d6 35 be 1d c1 24 bd
       -0.051097084 -0.0531151 -0.17757662 -0.04022323
000330 6a d9 88 3d 10 38 30 be d9 5f 47 bd c1 0c 1f be
       0.066820934 -0.17208886 -0.04867539 -0.15532209
000340 76 3d 29 be d1 d8 30 be 16 30 8e bd cc f1 2d be
       -0.16527352 -0.17270209 -0.069427654 -0.1698677
000350 ce 7c 67 3c bd 6c 71 3b 36 e3 04 bd 62 51 b9 3d
       0.014128877 0.0036838495 -0.032443248 0.09048726
000360 65 c4 55 3d 65 39 d3 bd cd 77 11 3e 73 a8 c9 3d
       0.05218925 -0.103136815 0.14205857 0.09846582
000370 dc 2f 08 be 25 cd 0d be be b8 03 bd c8 91 a1 3c
       -0.13299507 -0.13847788 -0.032158606 0.019722834
000380 50 3a 2e 3f 67 bd 96 3e b9 ad a8 3e ec 50 fd 3e
       0.6805773 0.29441378 0.3294504 0.494758
000390 66 1d eb 3e b4 25 b6 3e 47 aa ef 3e 3f 9e 21 3f
       0.45920867 0.3557564 0.468096 0.6313209
0003a0 b8 0c 41 3f 17 9c 94 3e d5 2d cf 3e 95 e9 d3 3e
       0.7541003 0.29025337 0.40464655 0.41389146
0003b0 04 7d 0c 3f 1c cc 8a 3e 73 50 ee 3e e4 93 b0 3e
       0.5487826 0.27108848 0.46545753 0.34487832
0003c0 8e 02 3f 3d 83 e3 ce 3e 93 64 c2 3e a8 ee 06 3f
       0.046633296 0.40407953 0.37967357 0.5270791
0003d0 5b 0e 0e 3f 90 6c d6 3e e4 51 d7 3e 10 42 2c 3f
       0.55490655 0.41879702 0.42054665 0.67288303
0003e0 24 23 29 3f ec d3 9c 3e df ba e1 3e bb f2 22 3f
       0.66069245 0.30630434 0.44087884 0.6365163
0003f0 c7 72 0b 3f 88 1b 33 3f 12 bb 78 3e d9 d3 ee 3e
       0.5447201 0.69963884 0.24290112 0.46646002

fc2.bias f4 [16]
000000 99 a9 c8 3e 4c 07 0a 3f a2 fd 05 3d 4d 48 0c 3e
       0.39191893 0.53917384 0.032712586 0.13699456
000010 fd 06 10 3f f3 99 30 3f cb d9 3f be 7f f6 1f 3f
       0.56260663 0.6898491 -0.18735425 0.624855
000020 e9 1f 74 be 3b df 0b 3f 96 b6 f2 3e 32 6b 1a 3f
       -0.23840298 0.546375 0.47404927 0.6031982
000030 28 97 08 3f 84 66 0e 3f 93 b9 bd be b1 5d e1 3e
       0.53355646 0.55625176 -0.37055644 0.44016793

fc3.weight f4 [1, 16]
000000 dc 6b 2d bf 2d d7 15 bf 74 3d b7 3d 7c 05 13 3e
       -0.67742705 -0.5853146 0.08947268 0.14357561
000010 3f 17 2d bf a2 ad 2f bf 49 10 be 3d 39 c5 20 bf
       -0.67613596 -0.6862432 0.0928045 -0.6280094
000020 eb 68 5f 3f 15 9e 03 bf 21 56 3e bf dc 84 49 bf
       0.8726947 -0.5141309 -0.7435017 -0.7871835
000030 d5 3d 3c bf c3 65 33 bf aa 1b 49 3f 09 0f 3d bf
       -0.7353185 -0.7007715 0.78557837 -0.73851067
